Layer_index,Shape,Weight Size,Input Size,Output Size,f_read,f_write,f_flops,f_peakmem,b_read,b_write,b_flops,b_peakmem
0,"BertLayer(
  (attention): BertAttention(
    (self): BertSelfAttention(
      (query): Linear(in_features=768, out_features=768, bias=True)
      (key): Linear(in_features=768, out_features=768, bias=True)
      (value): Linear(in_features=768, out_features=768, bias=True)
      (dropout): Dropout(p=0.1, inplace=False)
    )
    (output): BertSelfOutput(
      (dense): Linear(in_features=768, out_features=768, bias=True)
      (LayerNorm): LayerNorm((768,), eps=1e-12, elementwise_affine=True)
      (dropout): Dropout(p=0.1, inplace=False)
    )
  )
  (intermediate): BertIntermediate(
    (dense): Linear(in_features=768, out_features=3072, bias=True)
    (intermediate_act_fn): GELUActivation()
  )
  (output): BertOutput(
    (dense): Linear(in_features=3072, out_features=768, bias=True)
    (LayerNorm): LayerNorm((768,), eps=1e-12, elementwise_affine=True)
    (dropout): Dropout(p=0.1, inplace=False)
  )
)",28351488,1572864,1572864,129014784,100663296,257949696000,340217856,129014784,0,0,340217856
1,"BertLayer(
  (attention): BertAttention(
    (self): BertSelfAttention(
      (query): Linear(in_features=768, out_features=768, bias=True)
      (key): Linear(in_features=768, out_features=768, bias=True)
      (value): Linear(in_features=768, out_features=768, bias=True)
      (dropout): Dropout(p=0.1, inplace=False)
    )
    (output): BertSelfOutput(
      (dense): Linear(in_features=768, out_features=768, bias=True)
      (LayerNorm): LayerNorm((768,), eps=1e-12, elementwise_affine=True)
      (dropout): Dropout(p=0.1, inplace=False)
    )
  )
  (intermediate): BertIntermediate(
    (dense): Linear(in_features=768, out_features=3072, bias=True)
    (intermediate_act_fn): GELUActivation()
  )
  (output): BertOutput(
    (dense): Linear(in_features=3072, out_features=768, bias=True)
    (LayerNorm): LayerNorm((768,), eps=1e-12, elementwise_affine=True)
    (dropout): Dropout(p=0.1, inplace=False)
  )
)",28351488,1572864,1572864,129014784,100663296,257949696000,340217856,129014784,0,0,340217856
2,"BertLayer(
  (attention): BertAttention(
    (self): BertSelfAttention(
      (query): Linear(in_features=768, out_features=768, bias=True)
      (key): Linear(in_features=768, out_features=768, bias=True)
      (value): Linear(in_features=768, out_features=768, bias=True)
      (dropout): Dropout(p=0.1, inplace=False)
    )
    (output): BertSelfOutput(
      (dense): Linear(in_features=768, out_features=768, bias=True)
      (LayerNorm): LayerNorm((768,), eps=1e-12, elementwise_affine=True)
      (dropout): Dropout(p=0.1, inplace=False)
    )
  )
  (intermediate): BertIntermediate(
    (dense): Linear(in_features=768, out_features=3072, bias=True)
    (intermediate_act_fn): GELUActivation()
  )
  (output): BertOutput(
    (dense): Linear(in_features=3072, out_features=768, bias=True)
    (LayerNorm): LayerNorm((768,), eps=1e-12, elementwise_affine=True)
    (dropout): Dropout(p=0.1, inplace=False)
  )
)",28351488,1572864,1572864,129014784,100663296,257949696000,340217856,129014784,0,0,340217856
3,"BertLayer(
  (attention): BertAttention(
    (self): BertSelfAttention(
      (query): Linear(in_features=768, out_features=768, bias=True)
      (key): Linear(in_features=768, out_features=768, bias=True)
      (value): Linear(in_features=768, out_features=768, bias=True)
      (dropout): Dropout(p=0.1, inplace=False)
    )
    (output): BertSelfOutput(
      (dense): Linear(in_features=768, out_features=768, bias=True)
      (LayerNorm): LayerNorm((768,), eps=1e-12, elementwise_affine=True)
      (dropout): Dropout(p=0.1, inplace=False)
    )
  )
  (intermediate): BertIntermediate(
    (dense): Linear(in_features=768, out_features=3072, bias=True)
    (intermediate_act_fn): GELUActivation()
  )
  (output): BertOutput(
    (dense): Linear(in_features=3072, out_features=768, bias=True)
    (LayerNorm): LayerNorm((768,), eps=1e-12, elementwise_affine=True)
    (dropout): Dropout(p=0.1, inplace=False)
  )
)",28351488,1572864,1572864,129014784,100663296,257949696000,340217856,129014784,0,0,340217856
4,"BertLayer(
  (attention): BertAttention(
    (self): BertSelfAttention(
      (query): Linear(in_features=768, out_features=768, bias=True)
      (key): Linear(in_features=768, out_features=768, bias=True)
      (value): Linear(in_features=768, out_features=768, bias=True)
      (dropout): Dropout(p=0.1, inplace=False)
    )
    (output): BertSelfOutput(
      (dense): Linear(in_features=768, out_features=768, bias=True)
      (LayerNorm): LayerNorm((768,), eps=1e-12, elementwise_affine=True)
      (dropout): Dropout(p=0.1, inplace=False)
    )
  )
  (intermediate): BertIntermediate(
    (dense): Linear(in_features=768, out_features=3072, bias=True)
    (intermediate_act_fn): GELUActivation()
  )
  (output): BertOutput(
    (dense): Linear(in_features=3072, out_features=768, bias=True)
    (LayerNorm): LayerNorm((768,), eps=1e-12, elementwise_affine=True)
    (dropout): Dropout(p=0.1, inplace=False)
  )
)",28351488,1572864,1572864,129014784,100663296,257949696000,340217856,129014784,0,0,340217856
5,"BertLayer(
  (attention): BertAttention(
    (self): BertSelfAttention(
      (query): Linear(in_features=768, out_features=768, bias=True)
      (key): Linear(in_features=768, out_features=768, bias=True)
      (value): Linear(in_features=768, out_features=768, bias=True)
      (dropout): Dropout(p=0.1, inplace=False)
    )
    (output): BertSelfOutput(
      (dense): Linear(in_features=768, out_features=768, bias=True)
      (LayerNorm): LayerNorm((768,), eps=1e-12, elementwise_affine=True)
      (dropout): Dropout(p=0.1, inplace=False)
    )
  )
  (intermediate): BertIntermediate(
    (dense): Linear(in_features=768, out_features=3072, bias=True)
    (intermediate_act_fn): GELUActivation()
  )
  (output): BertOutput(
    (dense): Linear(in_features=3072, out_features=768, bias=True)
    (LayerNorm): LayerNorm((768,), eps=1e-12, elementwise_affine=True)
    (dropout): Dropout(p=0.1, inplace=False)
  )
)",28351488,1572864,1572864,129014784,100663296,257949696000,340217856,129014784,0,0,340217856
6,"BertLayer(
  (attention): BertAttention(
    (self): BertSelfAttention(
      (query): Linear(in_features=768, out_features=768, bias=True)
      (key): Linear(in_features=768, out_features=768, bias=True)
      (value): Linear(in_features=768, out_features=768, bias=True)
      (dropout): Dropout(p=0.1, inplace=False)
    )
    (output): BertSelfOutput(
      (dense): Linear(in_features=768, out_features=768, bias=True)
      (LayerNorm): LayerNorm((768,), eps=1e-12, elementwise_affine=True)
      (dropout): Dropout(p=0.1, inplace=False)
    )
  )
  (intermediate): BertIntermediate(
    (dense): Linear(in_features=768, out_features=3072, bias=True)
    (intermediate_act_fn): GELUActivation()
  )
  (output): BertOutput(
    (dense): Linear(in_features=3072, out_features=768, bias=True)
    (LayerNorm): LayerNorm((768,), eps=1e-12, elementwise_affine=True)
    (dropout): Dropout(p=0.1, inplace=False)
  )
)",28351488,1572864,1572864,129014784,100663296,257949696000,340217856,129014784,0,0,340217856
7,"BertLayer(
  (attention): BertAttention(
    (self): BertSelfAttention(
      (query): Linear(in_features=768, out_features=768, bias=True)
      (key): Linear(in_features=768, out_features=768, bias=True)
      (value): Linear(in_features=768, out_features=768, bias=True)
      (dropout): Dropout(p=0.1, inplace=False)
    )
    (output): BertSelfOutput(
      (dense): Linear(in_features=768, out_features=768, bias=True)
      (LayerNorm): LayerNorm((768,), eps=1e-12, elementwise_affine=True)
      (dropout): Dropout(p=0.1, inplace=False)
    )
  )
  (intermediate): BertIntermediate(
    (dense): Linear(in_features=768, out_features=3072, bias=True)
    (intermediate_act_fn): GELUActivation()
  )
  (output): BertOutput(
    (dense): Linear(in_features=3072, out_features=768, bias=True)
    (LayerNorm): LayerNorm((768,), eps=1e-12, elementwise_affine=True)
    (dropout): Dropout(p=0.1, inplace=False)
  )
)",28351488,1572864,1572864,129014784,100663296,257949696000,340217856,129014784,0,0,340217856
8,"BertLayer(
  (attention): BertAttention(
    (self): BertSelfAttention(
      (query): Linear(in_features=768, out_features=768, bias=True)
      (key): Linear(in_features=768, out_features=768, bias=True)
      (value): Linear(in_features=768, out_features=768, bias=True)
      (dropout): Dropout(p=0.1, inplace=False)
    )
    (output): BertSelfOutput(
      (dense): Linear(in_features=768, out_features=768, bias=True)
      (LayerNorm): LayerNorm((768,), eps=1e-12, elementwise_affine=True)
      (dropout): Dropout(p=0.1, inplace=False)
    )
  )
  (intermediate): BertIntermediate(
    (dense): Linear(in_features=768, out_features=3072, bias=True)
    (intermediate_act_fn): GELUActivation()
  )
  (output): BertOutput(
    (dense): Linear(in_features=3072, out_features=768, bias=True)
    (LayerNorm): LayerNorm((768,), eps=1e-12, elementwise_affine=True)
    (dropout): Dropout(p=0.1, inplace=False)
  )
)",28351488,1572864,1572864,129014784,100663296,257949696000,340217856,129014784,0,0,340217856
9,"BertLayer(
  (attention): BertAttention(
    (self): BertSelfAttention(
      (query): Linear(in_features=768, out_features=768, bias=True)
      (key): Linear(in_features=768, out_features=768, bias=True)
      (value): Linear(in_features=768, out_features=768, bias=True)
      (dropout): Dropout(p=0.1, inplace=False)
    )
    (output): BertSelfOutput(
      (dense): Linear(in_features=768, out_features=768, bias=True)
      (LayerNorm): LayerNorm((768,), eps=1e-12, elementwise_affine=True)
      (dropout): Dropout(p=0.1, inplace=False)
    )
  )
  (intermediate): BertIntermediate(
    (dense): Linear(in_features=768, out_features=3072, bias=True)
    (intermediate_act_fn): GELUActivation()
  )
  (output): BertOutput(
    (dense): Linear(in_features=3072, out_features=768, bias=True)
    (LayerNorm): LayerNorm((768,), eps=1e-12, elementwise_affine=True)
    (dropout): Dropout(p=0.1, inplace=False)
  )
)",28351488,1572864,1572864,129014784,100663296,257949696000,340217856,129014784,0,0,340217856
10,"BertLayer(
  (attention): BertAttention(
    (self): BertSelfAttention(
      (query): Linear(in_features=768, out_features=768, bias=True)
      (key): Linear(in_features=768, out_features=768, bias=True)
      (value): Linear(in_features=768, out_features=768, bias=True)
      (dropout): Dropout(p=0.1, inplace=False)
    )
    (output): BertSelfOutput(
      (dense): Linear(in_features=768, out_features=768, bias=True)
      (LayerNorm): LayerNorm((768,), eps=1e-12, elementwise_affine=True)
      (dropout): Dropout(p=0.1, inplace=False)
    )
  )
  (intermediate): BertIntermediate(
    (dense): Linear(in_features=768, out_features=3072, bias=True)
    (intermediate_act_fn): GELUActivation()
  )
  (output): BertOutput(
    (dense): Linear(in_features=3072, out_features=768, bias=True)
    (LayerNorm): LayerNorm((768,), eps=1e-12, elementwise_affine=True)
    (dropout): Dropout(p=0.1, inplace=False)
  )
)",28351488,1572864,1572864,129014784,100663296,257949696000,440881152,330341376,129014784,515899392000,340217856
11,"BertLayer(
  (attention): BertAttention(
    (self): BertSelfAttention(
      (query): Linear(in_features=768, out_features=768, bias=True)
      (key): Linear(in_features=768, out_features=768, bias=True)
      (value): Linear(in_features=768, out_features=768, bias=True)
      (dropout): Dropout(p=0.1, inplace=False)
    )
    (output): BertSelfOutput(
      (dense): Linear(in_features=768, out_features=768, bias=True)
      (LayerNorm): LayerNorm((768,), eps=1e-12, elementwise_affine=True)
      (dropout): Dropout(p=0.1, inplace=False)
    )
  )
  (intermediate): BertIntermediate(
    (dense): Linear(in_features=768, out_features=3072, bias=True)
    (intermediate_act_fn): GELUActivation()
  )
  (output): BertOutput(
    (dense): Linear(in_features=3072, out_features=768, bias=True)
    (LayerNorm): LayerNorm((768,), eps=1e-12, elementwise_affine=True)
    (dropout): Dropout(p=0.1, inplace=False)
  )
)",28351488,1572864,1572864,129014784,100663296,257949696000,541544448,330341376,129014784,515899392000,440881152
